_________________________________________________________________
Layer (type)                 Output Shape              Param #   
=================================================================
lambda_1 (Lambda)            (None, 20, 5000)          0         
_________________________________________________________________
lstm_1 (LSTM)                (None, 40)                806560    
_________________________________________________________________
dense_1 (Dense)              (None, 20)                820       
_________________________________________________________________
dense_2 (Dense)              (None, 10)                210       
_________________________________________________________________
dense_3 (Dense)              (None, 1)                 11        
=================================================================
Total params: 807,601
Trainable params: 807,601
Non-trainable params: 0
_________________________________________________________________
None
Train on 288 samples, validate on 96 samples
Epoch 1/1000

128/288 [============>.................] - ETA: 2s - loss: 0.6936 - acc: 0.4688
256/288 [=========================>....] - ETA: 0s - loss: 0.6924 - acc: 0.5195
…
