_________________________________________________________________
Layer (type)                 Output Shape              Param #   
=================================================================
lambda_1 (Lambda)            (None, 20, 5000)          0         
_________________________________________________________________
lstm_1 (LSTM)                (None, 40)                806560    
_________________________________________________________________
dense_1 (Dense)              (None, 20)                820       
_________________________________________________________________
dense_2 (Dense)              (None, 10)                210       
_________________________________________________________________
dense_3 (Dense)              (None, 1)                 11        
=================================================================
Total params: 807,601
Trainable params: 807,601
Non-trainable params: 0
_________________________________________________________________
None
Train on 36864 samples, validate on 12288 samples
Epoch 1/400

  128/36864 [..............................] - ETA: 13:50 - loss: 0.7006 - acc: 0.4531
  256/36864 [..............................] - ETA: 8:16 - loss: 0.6985 - acc: 0.4648 
…
