_________________________________________________________________
Layer (type)                 Output Shape              Param #   
=================================================================
lambda_1 (Lambda)            (None, 20, 5000)          0         
_________________________________________________________________
lstm_1 (LSTM)                (None, 40)                806560    
_________________________________________________________________
dense_1 (Dense)              (None, 20)                820       
_________________________________________________________________
dense_2 (Dense)              (None, 10)                210       
_________________________________________________________________
dense_3 (Dense)              (None, 1)                 11        
=================================================================
Total params: 807,601
Trainable params: 807,601
Non-trainable params: 0
_________________________________________________________________
None
Train on 1152 samples, validate on 384 samples
Epoch 1/1000

 128/1152 [==>...........................] - ETA: 26s - loss: 0.6967 - acc: 0.4297
 256/1152 [=====>........................] - ETA: 14s - loss: 0.6950 - acc: 0.4414
…
