_________________________________________________________________
Layer (type)                 Output Shape              Param #   
=================================================================
lambda_1 (Lambda)            (None, 20, 5000)          0         
_________________________________________________________________
lstm_1 (LSTM)                (None, 40)                806560    
_________________________________________________________________
dense_1 (Dense)              (None, 20)                820       
_________________________________________________________________
dense_2 (Dense)              (None, 10)                210       
_________________________________________________________________
dense_3 (Dense)              (None, 1)                 11        
=================================================================
Total params: 807,601
Trainable params: 807,601
Non-trainable params: 0
_________________________________________________________________
None
Train on 4608 samples, validate on 1536 samples
Epoch 1/1000

 128/4608 [..............................] - ETA: 2:26 - loss: 0.7100 - acc: 0.4766
 256/4608 [>.............................] - ETA: 1:30 - loss: 0.7100 - acc: 0.4648
…
